leader_selection_model.pth (torch, 50676 bytes, 7 tensors)

layers.0.weight f4 [128, 10]
000000 4e 9a 73 3e bf 1d 89 3f 1d 77 e1 3c eb 5f 08 bd
       0.23789331 1.0712203 0.027522618 -0.0332946
000010 1f 6f 54 3e 15 94 14 3c 87 83 cf 3d 5f 55 6d be
       0.20745514 0.009068509 0.10132509 -0.23177098
000020 50 17 b8 bc a5 b2 cf 3c d7 06 a3 3e d3 8d 31 bd
       -0.022472054 0.025353739 0.31841156 -0.043348145
000030 f9 7b da 3b 0f 70 98 bd ea 48 3e be 6d 34 fe bc
       0.0066676107 -0.074432485 -0.18582502 -0.031030858
000040 ff 58 a7 bd 78 b2 ad 3e c5 50 8c 3d 24 22 41 bc
       -0.081712715 0.33925223 0.06851343 -0.011787925
000050 34 7d 26 be 02 bd aa bc a6 d7 45 3d e0 9b a2 3e
       -0.16258699 -0.02084208 0.04830136 0.31759548
000060 53 4d 0d be ed 07 9a bb 0c 35 a5 bd b3 26 20 3f
       -0.13799028 -0.004700652 -0.080667585 0.6255905
000070 e2 bb aa 3e 04 86 43 bd bb 2e d2 3e 57 d0 18 bd
       0.33346468 -0.04773523 0.41051278 -0.037308063
000080 ca 44 db 3a ff 1b 00 3e 74 f3 cb be 9e 5d 19 3c
       0.0016728875 0.1251068 -0.39834177 0.009360699
000090 77 a5 71 3d f6 4f 4b bd 04 5c d7 3d b8 9e 2b bd
       0.05899569 -0.049636804 0.105155975 -0.041899413
0000a0 5a 0e ff 3d 24 5f df 3b a6 89 bb bc 0d b0 b2 be
       0.12453909 0.0068167616 -0.022892784 -0.3489994
0000b0 6a 60 d2 3e e5 39 bc bc fe 31 59 3d 56 92 82 bf
       0.41089183 -0.022976825 0.053026192 -1.0200908
0000c0 45 ed af be 04 ed 30 bc c4 44 bb 3d 27 b3 36 bc
       -0.3436071 -0.010798696 0.091439754 -0.011151112
0000d0 66 c5 fc bc 52 ef 16 be 7c 23 a5 bf 45 8b 55 bc
       -0.030855846 -0.14739731 -1.2901454 -0.013033693
0000e0 19 8a 1b bd 66 12 bb bd 3c c4 0a be 93 63 e1 ba
       -0.037973497 -0.091343686 -0.1355142 -0.0017195813
0000f0 8a 1b 70 bc 95 20 c8 3c d3 4f 38 3d 62 42 58 3d
       -0.014655003 0.024429599 0.044998 0.052797683
000100 0f 1b 2b be c4 6c dd 3c 70 91 16 3d ea f1 cf 3e
       -0.16709541 0.027029403 0.036759794 0.40614253
000110 36 28 6e 3e f7 1e a7 3c cb 2c 8b bd 98 df 45 3d
       0.23257527 0.020400507 -0.06795653 0.04830894
000120 25 a2 b6 3b 7e 3f 8e bd cd ab 27 be d0 0c 9a bc
       0.0055735284 -0.06945704 -0.1637413 -0.018804938
000130 b9 a6 1c bc 05 06 04 3f 27 e9 05 3e 0b 78 52 3d
       -0.009561234 0.51571685 0.13077222 0.051384013
000140 fa 1d b0 3e 73 61 ef bc 0b 01 84 3c 6e 91 82 3e
       0.3439787 -0.029221272 0.016113779 0.2550158
000150 09 9a 7c be 7a 66 87 bc f9 73 02 3d c8 d3 f8 bc
       -0.24668135 -0.016528357 0.03184888 -0.030374423
000160 81 62 76 3d 9d e3 61 ba 08 38 5f 3d 32 aa 00 3a
       0.060152534 -0.0008616986 0.054496795 0.00049081736
000170 81 93 8b 3c cc db 04 3b 04 d4 06 c0 08 52 f2 38
       0.017038109 0.002027261 -2.1066904 0.00011554739
000180 5b b1 d9 bc c0 73 e8 be 64 77 3a be e6 62 b4 3c
       -0.026573827 -0.4540081 -0.18209606 0.022019815
000190 52 25 7a 3d 3f a6 42 3a 16 63 e3 bc 70 e8 12 bd
       0.061070748 0.00074252853 -0.027757209 -0.0358662
0001a0 05 97 61 be 67 8c bd 3c 93 dc 5e 3c 0d 38 e2 3e
       -0.22030266 0.023138238 0.013602394 0.44183388
0001b0 4f cc 47 3e 87 bf 35 3c b7 f7 89 bd 7d 88 63 bc
       0.19511531 0.011093027 -0.06736701 -0.013887522
0001c0 ec 1b f2 3a 63 7a 13 bf 02 c2 ed bd cd 0d 9b bc
       0.0018471456 -0.5760862 -0.1160927 -0.01892748
0001d0 a4 86 14 bd cd a3 81 bf 69 90 16 bf df 31 a2 bc
       -0.036261216 -1.0128113 -0.588141 -0.019799171
0001e0 94 30 89 3e 19 2f 48 bf 09 06 1b bd 75 5c e4 be
       0.26794875 -0.78196865 -0.037847552 -0.4460179
0001f0 b9 25 e3 3e 61 74 33 3c f6 33 89 bc 13 3e bd be
       0.44364718 0.01095304 -0.01674841 -0.3696142
000200 81 37 96 be 68 1d 0f 3c f1 a4 e8 be 8d d6 6f 3c
       -0.2933922 0.008735038 -0.4543834 0.014638555
000210 1d 44 93 bc eb e5 39 be 78 ac 9a 3e c1 98 0d 3c
       -0.017976815 -0.18154113 0.30209708 0.008642376
000220 80 50 94 3d ef bc 75 be ea 21 ed bd ee a8 45 bd
       0.07241917 -0.23997854 -0.11578734 -0.048256807
000230 19 ca 86 3e c3 ce b9 bb fd cb 40 bc d0 33 76 3d
       0.26326063 -0.0056704 -0.011767385 0.060108006
000240 ee 84 ad bf 24 9a 5d 3c da 73 ae bc b6 f9 36 be
       -1.3556192 0.0135255195 -0.021295477 -0.17868695
000250 b8 6e aa bd 19 ee 87 3d 0f 2f de bd 3b e7 86 3c
       -0.08321899 0.066372104 -0.108488195 0.016467681
000260 6e 46 6a 3d f6 38 bf 3e 9e ca 0d bf b9 5f 0f bc
       0.057196073 0.37348145 -0.55387294 -0.008750849
000270 2c 70 d8 bb 4f 40 70 3f 0a 83 03 3f 2d 62 3c bb
       -0.006605169 0.9384813 0.51371825 -0.002874504
000280 fd 08 41 3c 4b 21 ae 3f b2 54 14 bc 18 ed 12 be
       0.011781928 1.360391 -0.009053396 -0.14348257
000290 67 eb 58 3e d5 25 05 bb f4 4a 00 3d d7 8c 92 be
       0.21183549 -0.002031674 0.03132148 -0.28623077
0002a0 b7 f9 00 be 06 4f b2 3b 5b ce 7e bd 90 24 81 bd
       -0.12595259 0.0054415492 -0.062208515 -0.06305802
0002b0 e5 dc 5e bd 49 68 17 be 8a 64 ed 3e 21 4a 13 3b
       -0.05440988 -0.14785875 0.46365768 0.0022474604
0002c0 49 6c d4 3c 78 54 73 bf ea 41 d6 be 2a d0 02 bc
       0.02593054 -0.95050764 -0.41847163 -0.0079842005
0002d0 c6 3f 57 3d 03 46 de bc b5 6d 84 3c 9c b9 19 be
       0.052551053 -0.027132994 0.016165594 -0.1501221
0002e0 b5 63 40 be a9 45 0c bb 1e b4 9b 3c 03 39 25 3f
       -0.18788035 -0.0021403825 0.019006785 0.6454012
0002f0 bc 35 46 3e c7 6e 5e bc 03 4e a7 3d e8 93 1c bf
       0.19356436 -0.013576216 0.081691764 -0.6116319
000300 75 d6 bd bc 86 6b a4 be 0a 99 c9 3e 7f 54 01 3c
       -0.02317355 -0.32113284 0.39374572 0.007893681
000310 1c 91 a6 3d 25 68 50 bf 08 b1 9d be 89 b9 a5 3c
       0.08133146 -0.8140891 -0.30799127 0.020230072
000320 40 d7 2f 3d ab 81 dc ba 54 c6 c5 bc b0 02 51 bd
       0.042929888 -0.0016823312 -0.024142422 -0.051027954
000330 b8 60 bb bf 8d 7f 55 bc 9b 86 bd bc ba a2 4a bc
       -1.4638891 -0.013030899 -0.023135474 -0.012367899
000340 6a ff e9 bd 4e b6 1d 3c e0 5f f2 be c2 6e 0a bd
       -0.114256695 0.009625984 -0.47338772 -0.033797033
000350 b5 89 d6 3c 6e 39 04 3d 22 cf a8 bf 66 5d 60 bc
       0.02618871 0.03228133 -1.3188212 -0.013694143
000360 97 47 2d 3c 94 ab 4b be 6f 2f 9e bd 75 8d 1e 3d
       0.01057615 -0.1988967 -0.07723891 0.038709123
000370 7c ba 1a be 7b 78 f4 bc 5e 74 7e 3d 8f 60 55 3e
       -0.151102 -0.029842606 0.062122695 0.20837615
000380 30 7f 29 be ff ab 80 bc c3 09 86 be 45 9d 37 3f
       -0.16552424 -0.015707014 -0.26179323 0.7172435
000390 3c 60 ee 3d 28 c6 0b 3d 3a 56 a6 3d b2 35 5b bc
       0.11639449 0.034124523 0.08121915 -0.013379501
0003a0 af e6 bd bb a5 78 8f 3d 45 98 c3 bf 44 61 f4 bb
       -0.005795322 0.07005433 -1.5280844 -0.007457884
0003b0 a6 0b eb bd 0c a6 29 be 7b 50 40 be 38 df 32 3d
       -0.11476831 -0.16567248 -0.18780701 0.04366991
0003c0 66 40 5f bd db 03 85 bf 23 b9 0f 3d 29 9e 37 3e
       -0.054504775 -1.0391802 0.03508867 0.17931427
0003d0 03 92 c3 3d c7 7d 82 bc c2 4d 3b 3d 0e a3 c4 be
       0.09549334 -0.015929116 0.045728453 -0.3840565
0003e0 dd 03 df 3b 5d c8 d7 bb 86 8b 06 3e d3 8b 4a 3f
       0.0068058805 -0.0065851645 0.13139161 0.79119605
0003f0 7f cc 03 bc 97 0c 9b be e8 68 bb 3e 88 83 b7 bc
       -0.008044361 -0.30283043 0.36603475 -0.022401586

layers.0.bias f4 [128]
000000 f8 d5 f8 bf 19 74 24 be 98 b9 63 bf d1 2b f5 3b
       -1.9440298 -0.16059913 -0.8895507 0.00748203
000010 39 ec 89 bf 79 cd dd be 26 5c c0 3d d3 fa 90 3e
       -1.0775214 -0.43320826 0.09392576 0.28316364
000020 78 e0 40 bd 27 43 cf be 6e f4 1b 3e d0 f5 0b c0
       -0.04708907 -0.4048092 0.15229961 -2.1868782
000030 0d 12 09 c0 13 47 49 3e 0f 3d 12 bf 38 03 34 3f
       -2.1417267 0.19656019 -0.5712442 0.7031741
000040 ff 7b b2 bf 57 a7 04 bf 35 ed a0 3d 2a 87 a5 bf
       -1.3944091 -0.5181784 0.07857744 -1.2931874
000050 a8 9b 4a be 78 fa 77 bf 0a 17 48 bf 43 9d 9a be
       -0.1978594 -0.9686656 -0.78160155 -0.30198106
000060 a1 60 53 bf c3 5d c2 bf 03 0d 15 bf 09 a2 aa bf
       -0.8256932 -1.5184864 -0.5822298 -1.3330699
000070 37 06 03 c0 68 10 73 be 0c 72 96 3e a2 fa 70 bf
       -2.0472543 -0.23736727 0.29383886 -0.94132435
000080 f5 d1 18 3e f8 8d 52 bf 19 7c c4 be ee f4 57 3a
       0.14923842 -0.8224788 -0.3837593 0.00082380965
000090 2e 00 ec bf 7c bb 04 bd 8b 26 30 bf 66 1e 25 be
       -1.8437555 -0.03240536 -0.6880881 -0.16124877
0000a0 cb 5a 1f 3e eb 37 ef 3d a8 eb d9 be 35 fb d7 bf
       0.15561979 0.116805874 -0.42562604 -1.6873537
0000b0 c3 67 b8 be d9 ab 94 3e 1d 56 64 bf b4 86 af bc
       -0.36016664 0.2903736 -0.891939 -0.021426536
0000c0 a2 9f 11 c0 8c f1 5e 3d 9e 76 57 bf d2 62 db bf
       -2.2753682 0.054429576 -0.8416537 -1.7139533
0000d0 0d c3 7d 3d 7d 06 cd bf a5 5d 2b be 13 f5 2e bf
       0.061953593 -1.6017605 -0.16734941 -0.68342704
0000e0 de db 24 3e 1e fc 1f bf ae a4 4a 3e 4b d6 75 bd
       0.16099498 -0.62494075 0.19789383 -0.06001882
0000f0 af e1 ea be 75 df f2 bd 6f 79 f7 bc 81 97 cf 3d
       -0.45875308 -0.11859027 -0.030209271 0.10136319
000100 69 2d e1 bf b8 cf d9 bf d0 69 60 be 2a 86 c2 3d
       -1.7591983 -1.7016516 -0.21915364 0.09498246
000110 6f 61 03 c0 f5 52 2d bf 7a 53 12 3f 26 61 53 3e
       -2.0528219 -0.6770471 0.57158625 0.20642528
000120 4c 19 2f 3e 09 48 53 be d2 18 f2 3d 7f 55 81 be
       0.17099494 -0.20632948 0.1182114 -0.2526054
000130 23 bc 30 bf 70 11 9b 3d fe b3 0a c0 80 dd 95 bf
       -0.69037074 0.07571685 -2.1672359 -1.1708221
000140 f6 73 17 bf 9b 85 04 bf b7 3d 94 3e 95 14 33 bf
       -0.5916132 -0.51766366 0.28953335 -0.6995328
000150 93 50 4c 3d 7b ce 67 bf 87 37 50 bd 86 d3 9c bf
       0.04988153 -0.9054944 -0.050834205 -1.2252052
000160 1c 94 8b be a3 c6 0b bf e7 b6 26 3e c5 0c f4 3c
       -0.27261436 -0.5459997 0.16280709 0.029791245
000170 c1 74 a9 bf a9 1e aa bf 10 98 8c 3d 5d c3 46 bf
       -1.3238755 -1.3290607 0.06864941 -0.7764185
000180 a8 ff 13 3d ea cd b0 be 12 d2 87 bf f7 21 65 bf
       0.036132485 -0.345321 -1.0610983 -0.8950495
000190 da c4 b6 bf 5a 07 df be e2 46 f8 be 42 52 b5 bf
       -1.4278824 -0.43560296 -0.4849158 -1.4165728
0001a0 c2 c8 a3 bf dc ef 16 be c6 ad 82 be 44 fa bd bd
       -1.2795641 -0.14739937 -0.25523204 -0.0927625
0001b0 e6 88 dc bf 82 64 db bf f1 b5 3e be cc 4e 02 bf
       -1.7229278 -1.7140048 -0.18624093 -0.50901484
0001c0 f4 48 f6 be d5 bb 8b be 1d 23 76 bf c2 82 01 3e
       -0.48102534 -0.27291742 -0.9614733 0.12647536
0001d0 6c 66 e2 bf d8 4d b8 be 55 b5 a4 bf 5f 00 08 be
       -1.7687507 -0.3599689 -1.2867838 -0.13281392
0001e0 2b bf 68 3f 2e 23 c6 3d 20 d7 9f bf de e0 21 bf
       0.909167 0.09674679 -1.2487526 -0.63233745
0001f0 a1 ed 1e 3e af ed 0e be 76 1d fc be d9 55 0f bc
       0.15520336 -0.13957857 -0.49241227 -0.008748495

layers.3.weight f4 [64, 128]
000000 97 5b 09 be 7f a6 20 3e 4c fd d9 3d 58 eb d5 3e
       -0.13413845 0.15688513 0.10644016 0.41781116
000010 9e a2 c3 3e 7f 63 b5 3d 48 1d 19 3d 28 3c ec bc
       0.38210005 0.08856868 0.03738144 -0.028837278
000020 99 ea 4c 3e 1f 64 8c 3b 53 08 03 3c bd 8b b5 bf
       0.20011367 0.0042843963 0.00799759 -1.418327
000030 64 1c 4d be 53 6b ab bd e3 35 1f 3e c8 ee 09 3b
       -0.20030361 -0.0837008 0.155479 0.0021046866
000040 ee 9f 3b c0 65 ab e4 3d 22 09 1c 3d cf 18 03 bd
       -2.9316363 0.111655034 0.038094647 -0.03200608
000050 01 aa b6 bb dc ff 48 bd 1f 98 d0 bd de 21 96 3c
       -0.0055744653 -0.04907213 -0.10185265 0.018326696
000060 72 b9 31 c0 44 be 5d bf e4 0b 1f 3d 2d 3f 38 bf
       -2.7769437 -0.8661845 0.0388297 -0.719714
000070 f1 9b af 3f 7d 66 8f bd b6 00 2f 3c 99 b0 ce c0
       1.3719465 -0.0700197 0.010681322 -6.4590573
000080 e7 9f 48 3d 58 dc d4 bf 1e a6 2f bc 00 11 e8 3c
       0.04898062 -1.6629744 -0.010720758 0.028328419
000090 0c 48 04 3f bc 3e 53 be 62 2b f9 3b bb 27 21 3e
       0.51672435 -0.206294 0.0076040486 0.15737812
0000a0 a4 05 00 bd 2c 19 62 bc 4f 6f 45 bd 93 a3 82 be
       -0.03125538 -0.013799947 -0.048201855 -0.25515422
0000b0 5b 6e 20 3d 72 32 22 bc 77 8a 14 3d 3d 12 b1 3c
       0.039167743 -0.009899722 0.036264863 0.021615142
0000c0 0e c1 13 be d2 84 f8 3c e4 b8 e9 bf a2 51 d1 be
       -0.14429113 0.030336771 -1.8259549 -0.40882593
0000d0 44 e5 a6 bd 64 ab 90 c0 4a a5 a6 3e 47 fc 1d 3e
       -0.08149198 -4.5209217 0.3254798 0.15428267
0000e0 59 c9 c4 ba 96 e9 9a 3d bf 54 a2 bb db 34 b8 bf
       -0.001501362 0.07564084 -0.00495395 -1.439113
0000f0 de 49 f9 3c ed 9a a2 3e a5 a1 b0 ba 92 60 c9 3d
       0.03043073 0.31758824 -0.0013475908 0.098328725
000100 15 f8 9a bf 44 ff 22 3f 45 87 14 3e de 00 b3 bd
       -1.2106959 0.63670754 0.14504726 -0.087404
000110 d0 0f b9 be eb e3 ac bd d7 d9 97 3c af 75 9f 3c
       -0.36144876 -0.084419094 0.018536491 0.019465296
000120 c7 c1 82 bd 69 fd 48 bf db c6 71 3c 20 79 9c bd
       -0.06384616 -0.78511673 0.0147568835 -0.0764029
000130 1b 71 37 3e 57 c2 cf 3c 6d 93 76 be f2 73 12 bf
       0.1791424 0.025361223 -0.24079676 -0.5720817
000140 ea 6b 1c c0 10 1e fb 3c 53 0f 63 bb 71 8c 70 c0
       -2.4440866 0.030653983 -0.0034646585 -3.7585719
000150 ce 20 46 be ea 93 a5 bf 46 71 38 3d 70 ea 01 3e
       -0.19348451 -1.2935765 0.0450299 0.12687087
000160 60 0e bc be 53 6f ef bd 1f 38 36 bd f7 68 d6 3d
       -0.36729717 -0.11691155 -0.044487115 0.10469239
000170 57 19 80 be 0e be 2a c0 9d 95 8e bc 24 6e d2 c0
       -0.25019333 -2.66785 -0.017405326 -6.575945
000180 8b 24 c3 be 3d 4a 8a c0 dc 0b ad bf 02 77 82 c0
       -0.38113818 -4.3215623 -1.3519244 -4.0770273
000190 34 63 07 c0 72 2e ad bd 69 82 b4 3d b0 5d 06 3f
       -2.1154299 -0.08456124 0.08813936 0.52486706
0001a0 00 2c ad be f2 32 6c 3e 40 5b c1 3b 7e a1 c4 bc
       -0.33822632 0.23066309 0.0059007704 -0.024002787
0001b0 42 c8 c2 3e 3f 90 58 bf 6c 84 63 3e 55 f8 8a c0
       0.3804341 -0.845951 0.22218484 -4.342814
0001c0 be 2a a4 bf 70 41 d7 be 23 cf 3c 3e cf a8 f9 3d
       -1.2825544 -0.42042112 0.18438391 0.12190401
0001d0 50 fe 5e 3f 00 7e 16 3e aa 94 fc be 45 1c db bf
       0.871068 0.14696503 -0.49332172 -1.7118002
0001e0 29 6f 1c bc 3f 01 e5 bc 6a f1 dc bd db ca 02 be
       -0.009547987 -0.027954696 -0.107882336 -0.12772696
0001f0 7c fe e7 3b aa 22 75 bb c0 5a 83 3d 1e de 84 bd
       0.0070798974 -0.0037404695 0.064137936 -0.06487678
000200 5e 64 a8 3e 5e 66 d1 bd 05 05 f1 3d 64 a4 ed bd
       0.32889074 -0.10224603 0.117685355 -0.11603621
000210 1a e3 a1 bf 9a 87 92 bd 7a 17 97 be 5e eb 56 be
       -1.2647431 -0.0715477 -0.295101 -0.20988223
000220 83 c2 26 be f1 32 f2 bb 7f ce a4 be fe e0 81 bf
       -0.16285138 -0.0073913266 -0.32188794 -1.0146787
000230 ec a7 78 bd 97 e6 97 3e 60 03 27 be 84 08 f1 39
       -0.060707018 0.29668114 -0.16309881 0.00045973447
000240 33 ce 57 3d ef 5d db be ba 69 a0 be 2f d2 13 3e
       0.05268688 -0.42845103 -0.31330663 0.14435647
000250 bc 2b 8b bc b8 53 8a 3b 6a 50 4b 3d c2 42 35 bd
       -0.016988628 0.004221406 0.049637236 -0.04425312
000260 05 cc c6 3d bf eb ab 3e 45 6f a9 bd d6 07 84 3e
       0.097068824 0.33578297 -0.08273176 0.25787228
000270 4b e8 bb bf d5 a7 4a be 56 8a 22 be 74 ef f5 bb
       -1.4680265 -0.19790585 -0.15873083 -0.0075053517
000280 aa 4b 9a be 65 49 46 be fc cf 2c be cc 13 98 be
       -0.30135852 -0.19363935 -0.16876215 -0.29702604
000290 50 2f 4a bf 94 92 0d be c0 a2 d5 bc e5 3c 47 be
       -0.78978443 -0.13825446 -0.026078582 -0.19456823
0002a0 f0 3d 93 be cb 2a a3 be d8 f8 1f be 12 ce a3 3d
       -0.28758192 -0.31868586 -0.1562227 0.07998289
0002b0 da 1a 3b bd 68 de 31 be 64 5f 37 bf 5f 20 87 bd
       -0.045679905 -0.17369998 -0.7162993 -0.06597971
0002c0 3d 21 73 3d fc bf a6 be 5d c8 89 3d 76 a1 b7 3d
       0.05935787 -0.32568347 0.067276694 0.08966343
0002d0 ae e8 4a be 35 aa f4 bd 01 61 37 be f8 e3 46 be
       -0.19815323 -0.11946527 -0.17908098 -0.194229
0002e0 22 4b 9f be e3 79 0a bf d0 50 72 be a5 e0 78 3d
       -0.3111201 -0.54092234 -0.2366364 0.060761113
0002f0 57 3c f7 bd c3 3e 05 be de d0 32 bd 3c d0 b2 be
       -0.12072056 -0.13012223 -0.043656223 -0.34924495
000300 de a8 15 3e 13 1e 3c bf 36 aa af 3d 43 40 9b be
       0.14615199 -0.7348339 0.08577387 -0.30322465
000310 bf b6 5d bf 5b ea fb bd 95 cf 8c bd 45 c4 96 be
       -0.86606973 -0.12300559 -0.06875531 -0.29446617
000320 11 e5 ea ba 48 db 17 3d 25 d8 9f be 85 de 74 be
       -0.001792105 0.037074357 -0.31219593 -0.2391301
000330 e6 1b 29 bd 33 41 90 be 34 52 96 3e 7e 19 5e 3e
       -0.04128637 -0.28174743 0.2935959 0.21689412
000340 3a 1b ce 3c 5a fc 26 bd 09 1f 35 be 0f 2e 85 3d
       0.025159467 -0.040768005 -0.1768762 0.065029256
000350 48 33 ec 3d fd 51 ce 3d 3f 54 90 be 71 96 5a 3e
       0.115332186 0.10074232 -0.28189275 0.21346451
000360 00 a0 0a bd 1b 25 f7 bd 47 04 87 be de f9 a2 be
       -0.033843994 -0.12067624 -0.2637045 -0.3183126
000370 d0 4b 97 3d dc 8e dd 3d 8f 10 94 be 67 ac a4 3c
       0.07387507 0.10818264 -0.28918883 0.02010174
000380 cd 20 8e 3e eb 17 35 3d 54 28 08 3e 76 f5 99 3c
       0.277594 0.044212263 0.13296634 0.018793803
000390 c5 9c 2f bf 41 a5 70 3d 28 02 66 bd 2f 3e fc be
       -0.68598586 0.05875135 -0.0561544 -0.49266192
0003a0 37 ea b3 3d 82 6d f1 bd 2b da bc bd d2 bc 89 be
       0.08784907 -0.11788465 -0.092213 -0.2690187
0003b0 da e8 87 3e d7 7e eb 3d 4c b7 f0 bd e2 ed 25 3d
       0.2654484 0.11498802 -0.11753711 0.040510066
0003c0 a4 65 48 bc e1 97 1a 3b dc 1d 92 bf 5d e9 a7 be
       -0.012231264 0.0023589062 -1.1415362 -0.3279523
0003d0 5c 2c cd bf 84 99 12 3c aa 58 82 bf 24 cf 2e 3d
       -1.6029162 0.008947734 -1.0183308 0.042678013
0003e0 3a 43 e0 3f 60 3e 82 be c1 8d d1 be 52 cf 21 bc
       1.7520516 -0.25438213 -0.40928462 -0.009876089
0003f0 f8 d0 8d be e5 dd 03 bd 9a e5 86 bd ac c1 3e be
       -0.27698493 -0.032194037 -0.06586762 -0.18628567

layers.3.bias f4 [64]
000000 33 93 dc 3e 9a f8 7a be 89 33 b4 bf ce d8 7d bf
       0.43081054 -0.24508896 -1.4078227 -0.9915894
000010 62 04 fc 3e fe 5b e5 3e 5e c7 02 3f a7 87 63 bf
       0.49222094 0.44796747 0.5108546 -0.88878864
000020 41 c1 82 bf 86 03 93 be 80 40 5f 3f 77 ee 88 be
       -1.0215226 -0.28713626 0.87207794 -0.26744434
000030 c0 1d e2 3d 2e 78 c8 be ba ca f5 3d e0 80 a8 3f
       0.110408306 -0.3915419 0.12001558 1.316433
000040 c5 9d 60 bf 05 19 34 3f f2 75 13 3f 2a a3 1d bf
       -0.8774074 0.70350677 0.57601845 -0.61577094
000050 da 7e da bf 04 03 46 bf b4 ae f5 bd 84 ef 7b bd
       -1.7069962 -0.7734835 -0.119962126 -0.061507717
000060 3a 57 0c 3f 1a 79 a6 bf 0d cf 01 3f 35 6b c5 3e
       0.548206 -1.3005707 0.5070656 0.38558355
000070 fa a6 90 bf 0a c6 80 3f 67 63 3b bf c0 ef a7 bb
       -1.1300957 1.0060437 -0.7319855 -0.005125016
000080 05 5c d6 be f5 06 a7 bf 47 f5 c2 bf 94 a5 31 3f
       -0.4186708 -1.3048998 -1.5231103 0.6939328
000090 92 30 7a 3e 1d 78 fb bb 10 7d 1c bf 62 d1 3a bf
       0.2443259 -0.0076742307 -0.6112833 -0.7297574
0000a0 65 0c 55 3f e8 83 63 3e 3c e9 4f 3e fb 42 53 3e
       0.8322204 0.22218287 0.20303816 0.2063102
0000b0 79 13 b2 bd f6 67 b8 3f 2b 21 00 3f 6a 3d 8b 3f
       -0.0869512 1.4406726 0.5005061 1.0878117
0000c0 b1 56 5c be f9 fa f4 3d 68 c1 e8 3e be 0f 84 3e
       -0.21517445 0.11961932 0.45460057 0.2579326
0000d0 3a 1d b6 bf c6 83 30 3f f4 27 ab be 11 e1 d7 3f
       -1.4227669 0.6895107 -0.3342892 1.686556
0000e0 50 de 95 3f 3d ec 09 3f 6d 81 a7 bf e3 b3 66 be
       1.1708469 0.53876096 -1.3086373 -0.22529559
0000f0 dd b7 f2 3b bc 07 0a be 11 f3 d9 be d5 0d 14 3e
       0.007407172 -0.13479513 -0.42568257 0.14458402

layers.6.weight f4 [32, 64]
000000 32 21 8a 3d 38 9b 21 bf 60 6e ae bd 5b b9 83 be
       0.06744613 -0.6312747 -0.08517146 -0.25727352
000010 49 8f 4f be 87 15 e2 bf 73 2f 6e be f5 09 e2 bf
       -0.20269503 -1.766282 -0.23260288 -1.7659289
000020 a8 13 ea 3d 51 92 90 3d 3d e5 04 bf f9 77 36 be
       0.114295304 0.07059158 -0.5191229 -0.17819203
000030 91 56 e4 3d 3f c2 18 be 27 1b 01 be 74 21 f6 be
       0.11149324 -0.14917849 -0.12608014 -0.48072398
000040 c2 07 13 be 7f c1 b6 be da 49 8e be c3 05 e6 be
       -0.14358428 -0.356945 -0.2779072 -0.4492627
000050 2b e8 8f 3d 15 2b 52 bf 67 df d2 3d 4d a1 30 ba
       0.070267044 -0.8209699 0.10296517 -0.0006737903
000060 09 f3 bd bd c5 eb c5 bc 67 ab 0e be 64 27 89 bf
       -0.09274871 -0.024160275 -0.13932572 -1.0715146
000070 61 d4 54 3d ca c4 b4 bc d7 04 dc be b4 a0 f4 be
       0.051960353 -0.022066493 -0.42972443 -0.47778857
000080 e2 14 8c be 3f 12 b8 3d 3d 9f fc bd ef f0 08 be
       -0.27359682 0.08987855 -0.1233506 -0.13373159
000090 1c 60 fc be de 65 a2 be 05 2f 34 bf a5 7b 9d bd
       -0.49292076 -0.31718343 -0.70384246 -0.07689599
0000a0 c7 7e 07 bd b5 a9 ee bc 2e 4c 06 be 54 28 3b 3e
       -0.03307989 -0.029133657 -0.13114998 0.18277103
0000b0 0d 23 32 bf 92 5b 40 bf 8a 7d 54 bf 30 70 27 c0
       -0.69584733 -0.75139725 -0.8300406 -2.6162224
0000c0 f7 c1 b7 bf f2 a9 5d bd 4f 9f 98 be 5b 0f 5e 3c
       -1.4356068 -0.05411715 -0.29809043 0.013553466
0000d0 c4 4f d9 be 04 ec 31 bf fa e3 16 bf d8 2d 34 c0
       -0.4244367 -0.69500756 -0.58941615 -2.815298
0000e0 3e 57 b4 bd a8 9b b4 be 05 71 0a bf c7 24 12 bf
       -0.088057026 -0.35275006 -0.54078704 -0.5708737
0000f0 26 b6 d5 bf 1a 7e ea 3c b3 81 12 bf a4 ba 5b 3d
       -1.6696212 0.028624583 -0.57229155 0.05364479
000100 bc 12 12 bf 5e bc 65 be 83 4f d5 be 88 29 96 3f
       -0.57059836 -0.22435138 -0.41662225 1.1731424
000110 13 0a 60 be 44 3f 26 3c dd ff 5f be 87 ee b4 bd
       -0.21878843 0.01014692 -0.21874948 -0.08834558
000120 3d f3 bf bd 7b 0d 3e 3f 70 96 b2 bd 8b 8e 81 bf
       -0.09372566 0.7423932 -0.087201 -1.0121626
000130 b0 d2 8d bf 19 9a 60 bf 48 57 53 be 5b 89 8b be
       -1.1079922 -0.87735134 -0.20638764 -0.2725323
000140 26 f3 ed bd 75 1b ac be 97 13 01 bc 34 0d c0 3b
       -0.116186425 -0.33614698 -0.007878206 0.005860949
000150 e3 13 70 3d 89 3b 09 bd 39 53 bd 3d 8d 10 29 be
       0.058612715 -0.033504043 0.09244389 -0.1651022
000160 3a e5 05 bf d4 10 1b bf 05 d3 1e 3e 00 41 78 bc
       -0.52302897 -0.6057255 0.15510185 -0.015152216
000170 a0 e8 cb 3b 3f ec b6 3e e4 47 85 39 91 cd 07 bf
       0.0062227994 0.35727116 0.000254213 -0.53048044
000180 9b bd 07 bf 28 c2 bc 3d 6e c7 85 3d 88 9c 6f be
       -0.5302369 0.0921672 0.06532179 -0.23399556
000190 1a 38 82 bc d5 d2 24 be e9 e0 97 3c 12 e0 7e 3c
       -0.015895892 -0.16096051 0.018539863 0.015556352
0001a0 b5 cd bb 3f 0b 84 b9 3f 46 7b a6 bc 1d 9b 1f bf
       1.4672152 1.4493421 -0.020322453 -0.6234606
0001b0 87 2a b2 3c 04 93 a3 3a 43 62 34 be bd 2c 07 3c
       0.021748794 0.0012479727 -0.17615609 0.0082504125
0001c0 df 35 48 bd 10 85 bd bd cf 3d d3 be 2b bc 01 3d
       -0.0488795 -0.09253895 -0.41258094 0.03167359
0001d0 ba aa 24 bd ad 5d 47 be 31 f2 5e bc 1c c8 db bb
       -0.04020188 -0.19469328 -0.013607548 -0.0067072045
0001e0 9f e4 4e bd a6 ee 25 be 7b 49 2d 3c 98 2a 93 be
       -0.050511 -0.16204318 0.010576601 -0.28743434
0001f0 87 c5 20 bd 60 d6 31 bd 91 cb 29 be 75 05 5f be
       -0.039250877 -0.043417335 -0.1658156 -0.21779425
000200 25 5d 5e c0 0f d1 26 c0 2b 15 bf 3e 18 c2 aa bf
       -3.474435 -2.60651 0.37320837 -1.3340483
000210 6a ab c5 bd 09 da 1e c0 46 46 39 be 1a 8a 97 3c
       -0.09651835 -2.4820578 -0.18093213 0.01849847
000220 75 9c 11 be e0 cf 82 bf c9 2b 79 c0 b8 93 b3 bf
       -0.1421984 -1.0219688 -3.8932974 -1.4029455
000230 26 dc dc bd 12 79 72 bf 65 99 b1 bc b8 04 bc bf
       -0.107841775 -0.9471599 -0.02167959 -1.468894
000240 2f 19 66 3e 7f 02 b6 bf 29 2e 82 bf 0f 2b 47 bc
       0.22470544 -1.4219512 -1.0170337 -0.012156262
000250 60 83 61 be cc eb 0b 3b d2 14 04 3e 46 81 97 bf
       -0.22022772 0.0021350263 0.12898567 -1.1836326
000260 2e ab a8 be d4 92 34 c0 e4 95 58 be ae da 30 bf
       -0.329431 -2.8214617 -0.21150929 -0.6908368
000270 86 ae cc 3d 86 aa 61 be 09 f5 a0 bc 25 4f 84 bf
       0.09994225 -0.22037706 -0.019648092 -1.0336653
000280 ae 7f 84 bf 45 2c 73 3d fe 5a 59 3e 8d f1 42 c0
       -1.0351465 0.05936839 0.21226117 -3.045993
000290 8f 08 c1 bf 6c ea 2d c0 66 fc 4b 3b 60 a9 a8 3d
       -1.5080737 -2.717433 0.0031125783 0.08235431
0002a0 a7 6c 77 be a8 b4 c1 bd 80 d7 b7 3b 96 8f 08 3d
       -0.24162541 -0.094582856 0.0056104064 0.03334006
0002b0 5a ce 3a bf dd a2 17 c0 a0 9b b4 bf 90 ec 21 c0
       -0.7297112 -2.3693154 -1.4109993 -2.5300636
0002c0 38 9a 45 3c c0 bd 90 3d 19 2c 92 3e 0a 44 6f bc
       0.012060694 0.07067442 0.2854927 -0.014603624
0002d0 49 bc 80 3e 44 73 c0 bf 41 48 07 bf 26 fe 55 bf
       0.2514365 -1.5035176 -0.52844626 -0.83590925
0002e0 ca 5c a8 bf 0e 82 5c bf 34 58 63 c0 1e cf a0 bd
       -1.3153317 -0.8613595 -3.5522585 -0.078520045
0002f0 16 a4 e1 be 51 9c 9c bd d5 a7 b8 3e 1f d0 b8 3d
       -0.440705 -0.076470025 0.36065546 0.09024071
000300 74 e2 58 be 5f f3 bc bd 09 7f f6 3e 8a ab 0b 3e
       -0.21180135 -0.09226107 0.48143795 0.13639656
000310 16 5d 07 bf 1a a9 73 bd 4c 48 48 c0 62 fa 0b 3e
       -0.5287641 -0.05948744 -3.1294127 0.13669732
000320 34 33 f0 3d cc 70 33 bc 0e e1 76 bf 6e 7c e3 bb
       0.11728516 -0.010952186 -0.96437156 -0.0069423234
000330 82 1c fc bf ae ee a0 bf ee 83 8d 3d d2 58 ef be
       -1.96962 -1.2572839 0.06909929 -0.46747452
000340 c7 00 96 3e d2 24 1c c0 1d 80 80 c0 2f 38 8e 3d
       0.29297468 -2.4397473 -4.015639 0.0694431
000350 a6 2b ac 39 41 b5 a2 3d a8 3c 45 bd 77 d2 9e be
       0.00032838917 0.07944728 -0.04815355 -0.31019947
000360 a3 87 8e bf bb 3c d4 3e a1 e6 73 bf 80 a3 cf 3d
       -1.1135143 0.41452584 -0.95273787 0.10138607
000370 2a 6c 47 3e d6 f7 7b c0 34 4a 90 3d a2 eb e3 3b
       0.19474855 -3.9370017 0.07045403 0.00695558
000380 56 ae 86 be 71 98 55 3e c2 1a eb 3e 3f 4a 60 be
       -0.26304883 0.20858933 0.45918852 -0.21903323
000390 10 f3 de be 08 ad b4 be 4c 6c ab bb a6 0c af 3d
       -0.43544817 -0.35288262 -0.005231416 0.085473344
0003a0 6e 76 c5 bf 81 0c 6d bf 6f 26 1b bf 6e a9 0c be
       -1.5426767 -0.92597204 -0.6060552 -0.13736507
0003b0 b9 39 32 be 04 85 e9 bd e7 39 8e bf 7e f1 6e 3b
       -0.17404832 -0.11402324 -1.111142 0.0036459859
0003c0 d4 9f d7 3c 1b b7 0c c0 82 c7 17 be 8c bd db bc
       0.02632133 -2.1986759 -0.148222 -0.026823781
0003d0 fe 2c ab 3d 80 ec b9 be 0c 28 77 be ca e8 21 bd
       0.08358191 -0.36313248 -0.2413637 -0.039528646
0003e0 94 c4 3d c0 55 91 a0 bf 07 20 be bb 72 a6 0e 3e
       -2.9651232 -1.2544352 -0.005802158 0.13930681
0003f0 a8 ee 84 bd f5 06 3b bd 9a cd 9d bd 19 64 fa bf
       -0.064908326 -0.04566093 -0.07705231 -1.9561797

layers.6.bias f4 [32]
000000 ce b4 4a 3e 5c 60 a7 3c 9f ec 1a 3f 05 67 e0 3e
       0.19795534 0.02043169 0.60517305 0.43828598
000010 06 95 01 bf a2 0d 18 be e9 c1 6b 3f 2d b3 51 bc
       -0.50618017 -0.1484895 0.9209276 -0.0127990665
000020 1b d1 b5 bd 67 3c 7b 3f 06 7a 36 bf 42 47 c1 3f
       -0.08877774 0.9813904 -0.71279943 1.5099871
000030 d2 7d d2 3d fc 0f f2 bf dd 56 bf 3e 70 eb ab bb
       0.102779046 -1.8911128 0.3737096 -0.005246572
000040 f7 2a d5 3e 58 a8 0c 3f 1c 04 11 be 9b a1 76 bd
       0.41634342 0.5494437 -0.14161724 -0.060212713
000050 99 9f a6 3e eb 84 33 bd c2 3d 56 3f 6d 3b 29 bf
       0.32543638 -0.043827932 0.83687985 -0.661063
000060 05 2a 0e 3f b0 e4 f1 3e 81 68 99 3e 20 91 be 3e
       0.55532867 0.47244787 0.29962543 0.37220097
000070 c4 05 64 3f 07 4e b2 3e c1 2f c4 bf 93 6a ab 3f
       0.890713 0.34825155 -1.5327073 1.3391899

layers.8.weight f4 [1, 32]
000000 06 9a 99 bd ed 4f a3 3c 04 d6 e3 bc 69 79 52 bd
       -0.07500081 0.019935573 -0.027812012 -0.051385317
000010 5d 66 a0 3d b2 b3 84 3d 2a 89 0e 3d c3 1a cd 3c
       0.07832024 0.06479587 0.03479878 0.025037175
000020 88 0f 01 3d 4f ce d4 3d 4e 08 c8 3d 80 c2 81 3d
       0.031508952 0.10390913 0.09767209 0.06335926
000030 95 4f ed 3c 3a bd f4 bc c8 6a bd bd 25 37 b6 3c
       0.028968612 -0.029875387 -0.092488825 0.022243092
000040 0c a9 b4 3d 7a 05 56 3d 5e e0 fb bc 14 f2 26 3c
       0.08821306 0.052251317 -0.030746635 0.010189552
000050 b0 be 0b 3d 56 c5 4a bc 74 6a 19 bd 75 30 cd 3d
       0.0341174 -0.01237615 -0.037455037 0.10019008
000060 29 bb 0f bd 7d 96 32 bd bc 79 fa bc 93 92 29 bd
       -0.0350906 -0.043600548 -0.030575626 -0.04139955
000070 b8 b4 ae bd 25 bc a6 3c 9d 9b e4 bc 38 56 1b 3d
       -0.08530563 0.020353386 -0.027906233 0.03792402
